checkpoint.pth (torch, 36631 bytes, 6 tensors)

fc1.weight f4 [74, 37]
0	0x3d506a50	0.050882638
1	0x3cea1843	0.028576022
2	0xbdd6546d	-0.10465322
3	0xbd88564b	-0.06657084
4	0x3c896462	0.016771499
5	0x3d4ddeac	0.050261185
6	0xbd79853a	-0.06091807
7	0x3e4a46e2	0.19753602
8	0xbdb6c6ac	-0.089246124
9	0x3e107f35	0.14111026
10	0x3ca7f964	0.02050466
11	0xbd000cd7	-0.031262245
12	0xbe65cc04	-0.22441107
13	0x39a7bb85	0.00031992435
14	0xbe934452	-0.28763062
15	0x3b1d2f9a	0.0023984672
16	0xbd37ae46	-0.044843934
17	0x3e78aa6d	0.24283762
18	0xbc4016d8	-0.011724196
19	0xbd083641	-0.033254866
20	0x3e15e8a6	0.1463953
21	0x3d314114	0.043274954
22	0xbd7de886	-0.06198933
23	0x3e2dbd5e	0.16966769
24	0xbd9d0c42	-0.076683536
25	0xbbe48eaf	-0.006975017
26	0x3d1d363b	0.038381796
27	0x3d50576e	0.05086463
28	0xbd91e9b3	-0.07124653
29	0xbd2bf8f9	-0.041985486
30	0xbd8cac38	-0.068687856
31	0x3e467221	0.19379474
32	0xbe7b5094	-0.24542457
33	0x3e0e4923	0.13895087
34	0xbe95e6a2	-0.2927752
35	0xbe20d000	-0.15704346
36	0xbd5b0237	-0.05346891
37	0x3dcedcdc	0.10100719
38	0x3e09b6a4	0.13448578
39	0x3da202a3	0.07910659
40	0x3e0e0309	0.13868345
41	0xbb805424	-0.0039162803
42	0x3def9b3d	0.11699531
43	0xbe05a114	-0.13049728
44	0xbe16f14a	-0.14740482
45	0xbda1d6c2	-0.0790229
46	0xbdec3714	-0.11533943
47	0x3c4db277	0.012554756
48	0x3dde35d6	0.10850112
49	0x3de6517d	0.112460114
50	0xbd9a0d58	-0.07522076
51	0x3d237363	0.039904963
52	0x3eca7f70	0.39550352
53	0xbe969435	-0.29409948
54	0x3c024f20	0.007953435
55	0xbe15fff8	-0.14648426
56	0xbf4c3969	-0.797751
57	0xbe23be44	-0.1599055
58	0xbb18e858	-0.0023331847
59	0xbb3f5320	-0.0029193833
60	0xbd6bda16	-0.05758103
61	0x3d713e3c	0.058897242
62	0x3d891725	0.066938676
63	0x3d0cdf54	0.03439267
64	0xbd6b35b1	-0.05742425
65	0xbcf0db04	-0.02940131
66	0xbe861be5	-0.26193157
67	0xbaa8f017	-0.0012888935
68	0x3e5194ff	0.20466994
69	0x3e1e335a	0.15449277
70	0x3c6f4b60	0.014605373
71	0xbdafbeab	-0.08581289
72	0xbba03140	-0.0048886836
73	0xbbe51c04	-0.006991865
74	0xbc5b9956	-0.013403257
75	0x3e18be28	0.14916289
76	0x3d38117e	0.044938557
77	0x3e01e7d6	0.12686095
78	0x3c5b594e	0.013387991
79	0xbe8839b2	-0.26606518
80	0x3da3f9d5	0.08006636
81	0x3ea075e9	0.31339958
82	0xbe957916	-0.29193944
83	0xbfaeb830	-1.364996
84	0x3c9dd609	0.019267099
85	0x3d197afd	0.037470806
86	0xbcb4279b	-0.021991542
87	0xbc82e342	-0.015977506
88	0xbd2eddf4	-0.04269214
89	0xbc8a829f	-0.016907988
90	0x3d9d8e4c	0.076931566
91	0x3df7bea8	0.12096912
92	0x3df120ef	0.1177386
93	0xbd97b94e	-0.07408391
94	0xbdbb9584	-0.09159377
95	0xb9157c26	-0.00014255996
96	0x3dba4ec9	0.09097058
97	0xbcabc39d	-0.0209673
98	0xbdebe3a5	-0.11518029
99	0xbbda1cce	-0.006656266
100	0x3e404511	0.18776347
101	0x3dd3f7d0	0.10350001
102	0xbdfe3cbc	-0.12413928
103	0xbecd7746	-0.4013006
104	0xbd065790	-0.03279835
105	0xbde76115	-0.11297814
106	0xbd409324	-0.047015324
107	0xbee9e3fa	-0.45681745
108	0xbefe774d	-0.49700394
109	0x3cb9db8d	0.022687698
110	0x3c898161	0.016785325
111	0x3db3d1cb	0.08780249
112	0xbdb44268	-0.088017285
113	0x3d51bd39	0.051205847
114	0x3dd95724	0.10612324
115	0xbdbf552c	-0.09342417
116	0xbcd6fcc5	-0.026243577
117	0xbe11bceb	-0.14232223
118	0x3e514a54	0.2043851
119	0xbeefda56	-0.46846265
120	0x3d928836	0.071548864
121	0x3df6ff53	0.12060418
122	0xbe033003	-0.12811284
123	0xbcea5969	-0.028607087
124	0xbea9ec26	-0.3318798
125	0xbe4ca4f9	-0.19984807
126	0x3dee11c1	0.1162448
127	0xbe8b6c48	-0.2723105
128	0xbdcea5ac	-0.10090193
129	0xbf2169eb	-0.63052243
130	0x3db7e4b4	0.089791685
131	0x3d762855	0.060097057
132	0xbe421564	-0.18953472
133	0x3cf5958a	0.029978532
134	0xbd987aaf	-0.07445275
135	0xbe3938ce	-0.18088076
136	0x3dbfbfbe	0.09362744
137	0xbe24ca7a	-0.16092864
138	0x3bdd9cd2	0.006763079
139	0xbe1622ad	-0.14661665
140	0xbe4b8678	-0.19875515
141	0x3d374ea5	0.044752736
142	0x3c546489	0.012963423
143	0x3e2728ca	0.16324154
144	0xbe6b8618	-0.23000371
145	0xbe367d81	-0.17821313
146	0x3c168b6f	0.009188517
147	0xbd8c7ba4	-0.0685952
148	0xbe426f91	-0.18987872
149	0xbe6989f9	-0.22806539
150	0xbd8e5bcf	-0.06951105
151	0xbe2409f4	-0.16019422
152	0x3d2779d6	0.040887676
153	0xbc5f456e	-0.013627393
154	0x3dd6b285	0.10483269
155	0xbe23a3e2	-0.15980485
156	0x3d639d09	0.055569682
157	0xbe9b4815	-0.30328432
158	0xbde26eba	-0.11056276
159	0x3df6af2e	0.120451316
160	0xbde5f542	-0.1122842
161	0xbdead25c	-0.11465904
162	0xbc963e78	-0.018340334
163	0xbdd43c02	-0.10363008
164	0xbe3665cd	-0.17812271
165	0xbdcd0a21	-0.100116976
166	0x3d6c2a04	0.057657257
167	0x3e90ba5a	0.28267175
168	0xbe192fdf	-0.14959668
169	0xbe0a9bf0	-0.13536048
170	0x3da12168	0.078677
171	0xbc39d054	-0.011341173
172	0x3da3f198	0.08005065
173	0x3cbb79ca	0.022885222
174	0xbdbca063	-0.09210279
175	0xbd9cd147	-0.07657104
176	0x3d33ff4d	0.043944646
177	0x3e4fdf1f	0.20299958
178	0x3c28402a	0.010269204
179	0xbd60ef1c	-0.054915532
180	0xbd846528	-0.064646065
181	0x3dcf19ad	0.10112319
182	0x3e6085fd	0.21926112
183	0x3dfbfcb7	0.12304061
184	0x3d89ae5c	0.067227095
185	0x3df6a099	0.1204235
186	0xbdc6640e	-0.09687053
187	0xbcf12884	-0.029438265
188	0xbd6e2156	-0.05813726
189	0x3dcb2ee4	0.09921053
190	0x3e5a2136	0.21301731
191	0x3e291237	0.16510855
192	0xbe96be25	-0.29441944
193	0xbe39e11a	-0.18152276
194	0xbe8e0de5	-0.27744976
195	0xbddc2158	-0.10748547
196	0xbc96f8b0	-0.01842913
197	0x3c70522f	0.014668032
198	0xbde90f94	-0.113799244
199	0xbdc5a734	-0.09651032
200	0x3d507222	0.050890096
201	0x3daf4088	0.0855723
202	0xbe0d7c47	-0.1381694
203	0xbd944b42	-0.07240917
204	0x3c0bda54	0.00853594
205	0x3ce05fca	0.027389426
206	0x3dfa685c	0.12226936
207	0x3dd8cda3	0.10586097
208	0x3d9ab479	0.07553954
209	0x3e0c14b2	0.1367977
210	0xbc043e9e	-0.00807157
211	0xbdce86c5	-0.10084299
212	0x3d0e1e0d	0.034696627
213	0x3e4aa3e3	0.1978908
214	0xbd6f594b	-0.058434766
215	0xbc63ee59	-0.013911807
216	0xbd883d13	-0.06652274
217	0x3dbe5f7c	0.09295556
218	0x3bae61bd	0.00532171
219	0x3dd36889	0.10322673
220	0xbcc2f6db	-0.02379935
221	0x3d33827e	0.04382562
222	0x3e2be16b	0.16785209
223	0x3d36bf0a	0.044615783
224	0xbcac6285	-0.021043072
225	0xbd881fb4	-0.06646672
226	0xbeaa8a83	-0.333088
227	0xbd257d09	-0.040402446
228	0xbd46ff37	-0.048583236
229	0x3cd1c4f3	0.025606608
230	0x3de3be16	0.111202404
231	0x3e3d6f3c	0.18499464
232	0x3deb0e0a	0.11477287
233	0x3df51cbf	0.119683735
234	0x3db22102	0.08697702
235	0x3d2f798f	0.042840537
236	0xbca0fdae	-0.019652214
237	0x3ce41340	0.02784121
238	0xbd89476b	-0.06703075
239	0x3cdee654	0.027209438
240	0x3db2fcf6	0.08739655
241	0x3cca7070	0.024711818
242	0xbda02182	-0.07818891
243	0x3c1f48b9	0.009721928
244	0x3d39284f	0.045204457
245	0x3e00d3ef	0.12580846
246	0x3e17d1f5	0.14826186
247	0xbd9e08eb	-0.07716545
248	0x3b54f54f	0.0032494848
249	0xbb20ed60	-0.002455555
250	0xbaab730b	-0.001308055
251	0x3ccab76b	0.024745664
252	0x3e9787b5	0.29595724
253	0x3cb97e94	0.022643365
254	0xbdd8c698	-0.10584754
255	0xbea29bd1	-0.31759503

fc1.bias f4 [74]
0	0x3dd112d4	0.10208669
1	0x3dfee45b	0.12445899
2	0x3e08d1ca	0.13361278
3	0xbdd6fddd	-0.10497639
4	0xbdb40487	-0.08789926
5	0xbe13a24e	-0.14417383
6	0x3db33614	0.08750549
7	0xbda6f0ae	-0.08151375
8	0xbe155332	-0.14582518
9	0x3e03a27d	0.12854953
10	0x3d9ed3b7	0.07755225
11	0x3e281f7a	0.16418257
12	0x3d325248	0.0435355
13	0xb9ef7867	-0.0004567534
14	0x3cf8210c	0.030289195
15	0xbcd9f668	-0.026606753
16	0xbdbc1182	-0.09183027
17	0x3e86b72f	0.26311633
18	0xbd652377	-0.055942025
19	0x3da99d9b	0.08282014
20	0xbe5a1412	-0.21296719
21	0x3ccba386	0.024858247
22	0x3de3990d	0.111131765
23	0xbe0c81aa	-0.13721338
24	0x3e026674	0.12734395
25	0x3d996269	0.074894734
26	0x3cebac93	0.028768813
27	0x3d12096c	0.035653517
28	0x3dcf5f85	0.10125641
29	0x3e964bb6	0.29354638
30	0x3e1d168b	0.1534063
31	0x3e0ae890	0.13565278
32	0xbe47c8bb	-0.19510166
33	0xbc4330cb	-0.011913489
34	0xbbbc97ca	-0.0057553994
35	0x3dae0e72	0.08498849
36	0xbdeba79c	-0.11506578
37	0x3e68ab05	0.22721489
38	0x3dffd96b	0.12492641
39	0x3de6c1c8	0.112674296
40	0x3cf29ea2	0.029616658
41	0x3e4b1fb7	0.19836317
42	0xbd9c8d70	-0.076441646
43	0x3e39fc79	0.18162717
44	0xbc953156	-0.018212002
45	0xbc2c2649	-0.010507175
46	0xbd51baa9	-0.051203404
47	0xbad3707b	-0.0016131544
48	0xbd2cfc7e	-0.042232983
49	0x3d89eb47	0.06734329
50	0xbdad96f0	-0.08476055
51	0x3d37e827	0.044899132
52	0x3dc4d312	0.09610571
53	0x3dbd5c36	0.092461035
54	0xbdeae9ee	-0.114704
55	0xbe0648d7	-0.13113724
56	0x3cefc8b2	0.029270504
57	0x3eba122a	0.36341983
58	0x3ca88f44	0.020576127
59	0x3d8e6d93	0.069544934
60	0x3d75921e	0.0599538
61	0x3d779a54	0.060449913
62	0xbcaf2211	-0.021378549
63	0xbdedcae2	-0.116109625
64	0x3c96beaf	0.018401472
65	0xbd6e745c	-0.058216438
66	0xbda7014e	-0.08154546
67	0x3cd47e82	0.02593923
68	0x3d5bf4b5	0.053700168
69	0x3cacae7b	0.021079293
70	0xbdccd687	-0.10001855
71	0x3d4c1cf1	0.04983229
72	0xbd2d6ac2	-0.04233814
73	0x3d4354e7	0.04768839

fc2.weight f4 [74, 74]
0	0x3c5df21c	0.013546493
1	0x3da78b44	0.0818086
2	0xbe5df541	-0.21675588
3	0x3e7d78f4	0.24753171
4	0xbe0d3956	-0.13791403
5	0xbe982fd4	-0.2972399
6	0x3dcf82b2	0.1013235
7	0xbeaff44f	-0.3436608
8	0xbdd43932	-0.10362472
9	0x3dd629e7	0.10457211
10	0xbe95e6be	-0.29277605
11	0xbea03645	-0.31291404
12	0xbec7c022	-0.39013773
13	0x3e256019	0.1614994
14	0x3d0f0716	0.034918867
15	0x3dbda29b	0.0925953
16	0x3c64f70a	0.013974914
17	0xbe6970dd	-0.2279696
18	0x3d2b54af	0.041828807
19	0xbe0b896f	-0.13626646
20	0x3def64af	0.11689126
21	0x3d45eb45	0.048320074
22	0xbd69e25c	-0.05710064
23	0xbe057e3f	-0.1303644
24	0x3e3d8b8c	0.18510264
25	0x3dac6d5a	0.08419295
26	0xbc16ad35	-0.009196569
27	0xbe04525a	-0.1292204
28	0x3d1f8a52	0.038950272
29	0xbe8fe9e4	-0.28108132
30	0xbeb2da89	-0.34932354
31	0x3d9f7635	0.07786218
32	0x3e92224d	0.28541794
33	0xbe832f67	-0.25622103
34	0xbe511fee	-0.20422336
35	0xbcff5183	-0.031166798
36	0xbdd690fb	-0.104768716
37	0xbd235eb9	-0.039885256
38	0xbec346cc	-0.3813995
39	0xbde9a911	-0.114092
40	0x3c8db429	0.017297821
41	0xbc964b1c	-0.018346362
42	0x3e623c8c	0.2209341
43	0x3cb80ce7	0.02246709
44	0xbe8643d7	-0.26223633
45	0xbd2d9d24	-0.04238619
46	0x3db31dfb	0.08745953
47	0x3e17b9ef	0.14817022
48	0x3ca9300f	0.020652799
49	0xbd7ea058	-0.062164634
50	0x3ca95d9c	0.02067452
51	0x3c5626ec	0.013070803
52	0x3d96fab1	0.07372034
53	0x3e02dbcc	0.12779158
54	0xbdb5b661	-0.08872677
55	0xbe8fd31d	-0.28090754
56	0x3d16d5ce	0.036824994
57	0xb958485b	-0.0002062632
58	0x3b623f25	0.00345225
59	0x3d8dc98a	0.06923206
60	0xbe86c2ba	-0.2632044
61	0x3ddd0521	0.10791994
62	0xbd97b5f9	-0.074077554
63	0xbd881b8d	-0.0664588
64	0xbe405f83	-0.18786435
65	0xbdfc84e3	-0.12330034
66	0xbdcc2145	-0.09967283
67	0xbe6f7fe6	-0.23388633
68	0x3da18b10	0.07887852
69	0xbc10ea26	-0.008844888
70	0x3d9102b2	0.07080592
71	0x3e251442	0.16121009
72	0x3d6fed8c	0.05857615
73	0x3d9c9d49	0.07647187
74	0xbd9f1928	-0.0776847
75	0x3dce33b4	0.10068455
76	0x3dc57b5b	0.09642669
77	0xbe2d9118	-0.1694988
78	0x3cff2ce5	0.031149337
79	0x3db8b882	0.09019567
80	0x3d5d3097	0.054001417
81	0x3d23aa09	0.03995708
82	0x3c1fa651	0.009744243
83	0x3e6045da	0.21901646
84	0x3d5c309c	0.053757295
85	0xbe1586cb	-0.146022
86	0x3e23ae08	0.15984356
87	0x3da61b73	0.08110704
88	0x3c1fca62	0.009752842
89	0x3d1aa27e	0.03775262
90	0x3d577e74	0.05261083
91	0x3dd0e32f	0.10199582
92	0xbc2c8aca	-0.010531137
93	0xbd1e0b6e	-0.03858512
94	0x3cb41606	0.021983158
95	0xbe05d7c2	-0.13070586
96	0x3d67385e	0.05645024
97	0x3e822076	0.2541539
98	0x3da07b47	0.07836013
99	0x3cc722ce	0.024308588
100	0x3d9c377f	0.076277725
101	0xbdc6ae68	-0.09701234
102	0x3e41c0a1	0.18921138
103	0x3e1adc07	0.15122996
104	0xbe3e13da	-0.1856226
105	0x3da11534	0.07865372
106	0xbdc7a8d0	-0.09748995
107	0x39ae904c	0.00033295376
108	0x3db1bff3	0.086791895
109	0xbd33fbf0	-0.04394144
110	0x3dae7067	0.08517533
111	0x3dad30e9	0.084565945
112	0xbd7da3c6	-0.061923765
113	0xbd550daa	-0.052014984
114	0xbc26e56b	-0.010186533
115	0x3e5e6272	0.21717241
116	0x3e250702	0.16115955
117	0x3dda2172	0.106509104
118	0xbdb323ac	-0.08747038
119	0xbe3f473d	-0.18679519
120	0x3db91484	0.09037116
121	0x3c9f62a3	0.019456213
122	0xbd99a6e9	-0.07502539
123	0xbdbd3e34	-0.0924038
124	0x3e0249f4	0.12723523
125	0x3db92709	0.090406485
126	0x3d760aad	0.060068775
127	0x3db5e31e	0.0888121
128	0xbdb61031	-0.08889807
129	0x3ceb751b	0.028742364
130	0x3c80e99f	0.0157364
131	0x3e401803	0.1875916
132	0x3d139b7a	0.036036946
133	0xbdb33c53	-0.0875174
134	0x3de4a49a	0.11164208
135	0x3dcd8716	0.10035531
136	0xbd7839aa	-0.060601868
137	0x3c9995df	0.018748222
138	0xbd927c54	-0.0715262
139	0xbbee9c29	-0.0072817993
140	0xbd0977cd	-0.033561517
141	0xbc8d2c86	-0.017233144
142	0x3d08e476	0.033421002
143	0x3e019bf6	0.1265715
144	0x3c972ce5	0.018454025
145	0xbc0825de	-0.0083098095
146	0xbaa6b06b	-0.0012717372
147	0xbdcd6efa	-0.10030933
148	0xbdd28755	-0.10279719
149	0x3b820b33	0.00396862
150	0xbec56f4f	-0.38561484
151	0xbd613cdb	-0.054989677
152	0x3dd0b6db	0.10191127
153	0xbd08d70e	-0.033408217
154	0x3e335f8e	0.1751692
155	0x3dbb4655	0.09144274
156	0x3d507c44	0.05089976
157	0xbd9dc48d	-0.07703505
158	0x3dc569d8	0.09639329
159	0x3eb46c31	0.35238793
160	0x3ca779b7	0.02044378
161	0xbe2890d4	-0.16461498
162	0x3e5a04f9	0.2129096
163	0x3ddab346	0.10678725
164	0x3da7e25d	0.08197472
165	0xbee33eb0	-0.44383764
166	0x3e112c00	0.14176941
167	0x3e60c904	0.21951681
168	0xbdda007a	-0.10644622
169	0x3dcfd103	0.10147288
170	0x3cf61305	0.030038366
171	0x3bece543	0.0072294786
172	0xbdd99d42	-0.10625698
173	0xbe2f5ae8	-0.17124522
174	0x3ea56a9b	0.32307896
175	0xbdd948e5	-0.10609607
176	0xbea39e13	-0.3195654
177	0x3d84d3d9	0.06485719
178	0x3e99e738	0.30059218
179	0x3bef741b	0.007307542
180	0x3e0b5bac	0.13609189
181	0xbe94baa7	-0.29048654
182	0x3cb352e8	0.021890119
183	0xbde9da9a	-0.11418648
184	0x3db8a8f4	0.090166
185	0xbe0fd871	-0.1404741
186	0xbd18dc60	-0.03731954
187	0x3d0da180	0.034577847
188	0x3e4b17c0	0.19833279
189	0x3c8ab421	0.016931595
190	0x3e678e26	0.22612819
191	0x3e101bac	0.14073056
192	0x3e922002	0.28540045
193	0xbdf52be7	-0.11971264
194	0xbe007c07	-0.12547313
195	0xbdd1d381	-0.10245419
196	0x3d0fec3c	0.0351374
197	0xbd5e71cb	-0.05430774
198	0xbd97439d	-0.07385943
199	0x3d37af20	0.044844747
200	0x3c472057	0.0121537065
201	0x3d051976	0.032494985
202	0xbb48df28	-0.003065059
203	0x3e2c102b	0.16803043
204	0x3e04cc5e	0.12968585
205	0xbcd10b54	-0.025518097
206	0xbbb48a66	-0.0055096624
207	0x3e446bdd	0.19181772
208	0xbccc0b88	-0.024907842
209	0xbc8c59b1	-0.017132612
210	0x3e50fdbe	0.20409295
211	0xbb6a80e4	-0.0035782391
212	0x3c88b2ae	0.016686764
213	0x3cdbd3f9	0.026834475
214	0x3ca98462	0.020693008
215	0xbdb235e2	-0.087016836
216	0x3cf4972b	0.029857239
217	0xbe2ebe6c	-0.17064828
218	0xbd2bc4d1	-0.041935746
219	0x3a8cd989	0.0010745983
220	0x3d47121a	0.048601247
221	0xbe1d7c6f	-0.15379499
222	0xbe769358	-0.24079645
223	0x3ddf27da	0.10896273
224	0xbe2e12db	-0.1699938
225	0xbe2d29dc	-0.169105
226	0x3db117c0	0.08647108
227	0xbbbb37df	-0.0057134475
228	0xbe1c5ff3	-0.15270977
229	0xbe965ee7	-0.2936928
230	0x3e495e84	0.19664961
231	0xbdaaf71f	-0.08347916
232	0xbde178d5	-0.11009375
233	0x3cc63dfe	0.024199482
234	0xbca7da9f	-0.020489989
235	0x3c6823c8	0.014168687
236	0xbeb97ff4	-0.36230433
237	0x3c67f7de	0.014158217
238	0xbc2747fa	-0.010210032
239	0xbdaf5f4b	-0.085630976
240	0xbec5ed12	-0.38657433
241	0x3e10c7fe	0.14138791
242	0xbe0e10da	-0.13873616
243	0x3dcdca05	0.10048298
244	0x3d8894ed	0.0666903
245	0xbe8ba980	-0.27277756
246	0x3d779a53	0.06044991
247	0x3d93f4c8	0.07224423
248	0x3e5360b0	0.20642352
249	0xbea3a040	-0.319582
250	0xbe0b8a75	-0.13627036
251	0xbd3a6dff	-0.045515057
252	0xbe3d29c7	-0.18472968
253	0x3e5dc98e	0.21658918
254	0x3e8d3b39	0.27584246
255	0xbd0f6611	-0.035009447

fc2.bias f4 [74]
0	0xbc6d54a3	-0.014485511
1	0x3e7d16e0	0.24715757
2	0xbd707453	-0.058704685
3	0xbe015dcc	-0.12633437
4	0x3ed11547	0.40836546
5	0x3d0e2185	0.034699935
6	0x3e657ead	0.22411604
7	0x3d37fb38	0.044917315
8	0x3d9e1f66	0.077208325
9	0xbcc0bc52	-0.023527298
10	0xbc525b4c	-0.01283915
11	0xbd2c2337	-0.04202577
12	0x3eb1a200	0.3469391
13	0x3ec6fb40	0.38863564
14	0xbdd00a34	-0.10158196
15	0x3c2e06d2	0.010621743
16	0x3d40dcd9	0.047085617
17	0x3be6c1c5	0.007042142
18	0x3c54f874	0.012998689
19	0x3e4f427e	0.20240209
20	0x3ea47dbe	0.32127184
21	0x3e2b7a72	0.16745928
22	0x3ea82304	0.32839215
23	0xbc072e45	-0.008250778
24	0x3e4d51bd	0.20050712
25	0x3d95a686	0.073071525
26	0x3d408ced	0.047009397
27	0x3ca1fc28	0.019773558
28	0x3e33635a	0.17518368
29	0x3d42a4c5	0.047520418
30	0x3ea04035	0.31298986
31	0xbdab2e65	-0.083584584
32	0x3e5ba6cc	0.21450347
33	0x3e9d256c	0.30692613
34	0x3ee23eeb	0.44188628
35	0xbe1dd509	-0.15413298
36	0xbda54227	-0.08069258
37	0x3df96dd7	0.121791534
38	0x3da16161	0.07879902
39	0xbd34bd87	-0.04412606
40	0x3e8ba0f8	0.27271247
41	0x3d29d923	0.041466843
42	0x3dd018f5	0.1016101
43	0x3df74cee	0.1207522
44	0x3be20778	0.006897863
45	0x3d83046f	0.0639733
46	0x3dfb62e5	0.12274722
47	0xbe2c98ef	-0.16855215
48	0x3e1e6036	0.15466389
49	0x3e57c73a	0.21072093
50	0x3e073ac5	0.13206013
51	0x3e9f276a	0.31084758
52	0x3ea283b8	0.31741118
53	0xbcd7fcad	-0.026365602
54	0x3e2751ca	0.16339794
55	0xbe589e3d	-0.21154113
56	0xbe1249ee	-0.14286014
57	0xbdaee085	-0.085389175
58	0x3e8a4980	0.270092
59	0x3e6f2e38	0.23357475
60	0x3e435944	0.19077021
61	0xbe0ad955	-0.13559468
62	0x3adb8ed8	0.0016750945
63	0x3d0c6be8	0.034282595
64	0x3da9fc7f	0.08300113
65	0xbd925baa	-0.0714639
66	0x3d84139e	0.06449054
67	0x3ec467fc	0.38360584
68	0x3ea1898b	0.3155025
69	0xbdbe47ea	-0.0929106
70	0x3d70564a	0.05867604
71	0x3ea28628	0.31742978
72	0x3d941de1	0.072322614
73	0x3c1b3c7d	0.009474871

fc3.weight f4 [4, 74]
0	0x3dc1a5cf	0.094554536
1	0x3def1d4f	0.11675512
2	0xbe54abd2	-0.20768669
3	0x3d4de382	0.050265796
4	0x3e171b70	0.1475656
5	0x3f1d3bb4	0.61419225
6	0x3edb1d4b	0.42795786
7	0x3e5d8bbe	0.21635339
8	0xbd10ee25	-0.035383362
9	0xbe2efa9c	-0.17087787
10	0xbdcd19e0	-0.10014701
11	0xbea07d49	-0.31345585
12	0x3d798aa6	0.06092324
13	0x3e419642	0.18904975
14	0x3eca63d6	0.39529294
15	0x3e380d64	0.17973858
16	0xbd88173c	-0.066450566
17	0xbcd4db4e	-0.025983479
18	0x3f2d804f	0.6777391
19	0x3e201f50	0.15636945
20	0x3e048d5b	0.12944548
21	0x3c99fb08	0.018796459
22	0x3e22e6fd	0.15908428
23	0x3def0efd	0.11672781
24	0x3d522e68	0.051313788
25	0x3e39dacf	0.18149875
26	0x3d7c4409	0.06158832
27	0xbdf21b77	-0.11821645
28	0x3e25ca43	0.16190438
29	0x3d9fa3d0	0.07794917
30	0x3d50ecdf	0.051007148
31	0x3ea36a16	0.31916875
32	0x3e075ce8	0.13219035
33	0x3dab791e	0.08372711
34	0x3e415ae9	0.18882336
35	0xbdd5670d	-0.10420046
36	0x3e389d26	0.18028697
37	0x3e8f2085	0.27954498
38	0xbdbbfbf8	-0.091789186
39	0x3ee29ddd	0.44261065
40	0x3e6bb475	0.23018058
41	0x3e94c584	0.29056942
42	0xbbe20cbb	-0.0068984902
43	0xbcd9f78e	-0.026607301
44	0x3cd7d187	0.026345028
45	0x3e518c9a	0.20463791
46	0x3d872faf	0.06600892
47	0xbea2083a	-0.316469
48	0x3d7c5f95	0.06161459
49	0x3da05d0c	0.07830247
50	0x3e5f8a83	0.21830182
51	0x3e03d9d9	0.12876071
52	0x3e05036a	0.12989584
53	0x3e60542f	0.21907113
54	0x3e67abdb	0.22624151
55	0xbe2da478	-0.16957271
56	0xbe431d3c	-0.19054121
57	0xbecd1f6b	-0.40063033
58	0x3d5cff43	0.053954374
59	0x3d632247	0.05545261
60	0x3d2f44eb	0.042790335
61	0xbe912994	-0.28352034
62	0x3e300387	0.17188846
63	0x3e8e6850	0.2781396
64	0x3dc14e61	0.09438778
65	0xbe162aac	-0.14664716
66	0xbd619651	-0.055074994
67	0x3e0bb213	0.13642149
68	0x3deb9a76	0.115040705
69	0x3d5a3d3e	0.05328106
70	0xbd8026e7	-0.0625742
71	0x3e20c85e	0.15701434
72	0xbe36faf3	-0.17869167
73	0xbf29fcf8	-0.66401625
74	0xbbbc1782	-0.005740107
75	0x3d9a50fc	0.07534978
76	0xbe26d34d	-0.16291542
77	0x3e806c3e	0.25082582
78	0x3e10b593	0.14131765
79	0x3f2fcaf8	0.6866908
80	0x3e92fdbc	0.2870921
81	0x3e2f6143	0.17126946
82	0x3d7c321e	0.061571233
83	0x3d8b9a52	0.06816544
84	0x3e2fea16	0.1717914
85	0xbecc2258	-0.39869952
86	0x3e04e379	0.12977399
87	0x3e288d52	0.1646016
88	0x3eccdfac	0.40014398
89	0xbda78c91	-0.08181108
90	0x3e055e85	0.13024338
91	0xbee3850d	-0.44437447
92	0x3f2985b8	0.66219664
93	0x3e343d05	0.17601402
94	0x3de13e1e	0.10998176
95	0x3e192581	0.14955713
96	0x3da387e8	0.079849064
97	0x3d5c287e	0.053749554
98	0x3d97e06f	0.07415854
99	0x3e67ace2	0.22624543
100	0x3d462e8c	0.048384234
101	0xbdfaf257	-0.12253254
102	0x3ea624a4	0.3244983
103	0x3e0c88ea	0.13724104
104	0x3e32d7a6	0.17465076
105	0x3dee841f	0.11646294
106	0x3db80bb1	0.08986605
107	0x3dcbb388	0.09946352
108	0x3e063825	0.13107355
109	0xbe422954	-0.18961078
110	0x3e91e60a	0.28495818
111	0x3e51ad4c	0.20476264
112	0xbc882381	-0.016618492
113	0x3ec81e2e	0.39085525
114	0x3e18f0bf	0.14935587
115	0x3ea75a2c	0.32685983
116	0x3e155a79	0.14585294
117	0x3d12f85f	0.035881396
118	0x3dbf42cc	0.09338912
119	0x3eb9ca37	0.3628709
120	0x3e36860a	0.1782457
121	0x3c4864c9	0.01223106
122	0x3e67437b	0.22584336
123	0x3e49c34d	0.19703408
124	0x3e882be9	0.26596
125	0x3e013ee5	0.12621649
126	0x3d32ddce	0.04366856
127	0x3ed3f5be	0.41398424
128	0x3e35d366	0.17756423
129	0x3e01deea	0.12682691
130	0x3d935d54	0.07195535
131	0xbd83193e	-0.06401299
132	0x3dc58b75	0.0964574
133	0x3dad9e01	0.084774025
134	0x3e24507f	0.16046332
135	0xbe145818	-0.1448673
136	0x3dd0d15a	0.10196181
137	0x3ea20cc4	0.31650364
138	0x3ce79bd6	0.02827255
139	0xbd9437d1	-0.07237209
140	0x3d3e9b4e	0.04653483
141	0x3e4ead0a	0.20183197
142	0x3d865d77	0.06560796
143	0x3e1c28a2	0.15249875
144	0x3e5382bd	0.20655341
145	0x3e3f7424	0.18696648
146	0xbe00cecc	-0.12578887
147	0x3ebcd8fa	0.3688429
148	0xbeb0eb87	-0.34554693
149	0x3d8c949e	0.06864284
150	0xbe0fcd60	-0.14043188
151	0xbe6fa01f	-0.23400925
152	0x3e17fddd	0.14842935
153	0x3f20b7b9	0.6278034
154	0x3dfd6e5e	0.123745665
155	0x3e37e847	0.179597
156	0x3e825713	0.25457057
157	0x3e2f7d89	0.17137732
158	0xbe677530	-0.22603297
159	0xbe83b3c9	-0.25723103
160	0x3e0ba29f	0.13636254
161	0x3e0fbd95	0.14037164
162	0x3f2350d1	0.6379519
163	0x3f147441	0.5798989
164	0x3e94479f	0.28960893
165	0xbd2672c4	-0.040636793
166	0x3e327939	0.17429055
167	0x3e4b6897	0.19864117
168	0x3dc324fd	0.09528539
169	0x3e45bae4	0.19309574
170	0x3e35acdb	0.1774172
171	0xbe724901	-0.23660661
172	0x3dfcc39a	0.123419955
173	0x3e2e798a	0.17038551
174	0x3e3d8920	0.1850934
175	0x3d9e723b	0.077366315
176	0x3e31a018	0.17346227
177	0xbe00da5e	-0.125833
178	0x3e0c1d93	0.13683157
179	0xbe0fa2e6	-0.14026985
180	0xbd8896cc	-0.06669387
181	0x3dc0163e	0.09379242
182	0x3e43a213	0.19104795
183	0xbedf352a	-0.43595248
184	0x3ecc65db	0.3992146
185	0x3e89a3ec	0.26882875
186	0x3d93e2aa	0.07220967
187	0x3a70fa28	0.00091925496
188	0x3e168115	0.14697678
189	0xbdc41b76	-0.0957555
190	0xbd2b284a	-0.04178647
191	0x3e71df78	0.23620403
192	0xbeaca8c0	-0.33722496
193	0x3ee13ed1	0.43993238
194	0x3e5a5b2c	0.21323842
195	0xbe9eedcb	-0.31040797
196	0x3e6e7246	0.2328578
197	0x3e766265	0.24060972
198	0xbc395c96	-0.011313578
199	0x3e1442de	0.14478633
200	0x3d826b23	0.06368091
201	0x3e33c150	0.17554212
202	0x3dc2876d	0.09498487
203	0xbe7c3c31	-0.24632336
204	0xbda93815	-0.0826265
205	0xbde7b9bf	-0.11314725
206	0x3e122399	0.14271392
207	0x3ded2c21	0.115806825
208	0x3e45de5f	0.19323109
209	0xbe21dc3a	-0.15806666
210	0x3e72839a	0.23683015
211	0x3f2a4713	0.665147
212	0x3e627b23	0.22117285
213	0x3e835fac	0.2565893
214	0x3e152de6	0.1456829
215	0x3e2f4177	0.17114817
216	0x3d61b313	0.05510242
217	0x3d25ec7e	0.04050874
218	0x3d93d762	0.072188154
219	0x3e246644	0.16054636
220	0x3da85477	0.082192354
221	0xbe6837ae	-0.2267749
222	0xbeec4be5	-0.46151653
223	0x3e1605ea	0.14650694
224	0xbdf6f1b3	-0.12057819
225	0xbe47bfc1	-0.19506742
226	0x3e1a7297	0.15082775
227	0x3e2a214a	0.16614261
228	0x3d9c397e	0.07628153
229	0x3d8512f0	0.06497753
230	0xbe7969b9	-0.24356736
231	0xbed1d7fa	-0.4098509
232	0xbe408481	-0.18800546
233	0xbe631700	-0.22176743
234	0x3e12ea53	0.143472
235	0x3e4ece8f	0.20195983
236	0x3d45ad33	0.04826088
237	0x3ef1157a	0.47086698
238	0xbbfecbd1	-0.0077757617
239	0xbd136d63	-0.03599299
240	0x3edf39bf	0.43598744
241	0x3e0f34c2	0.1398497
242	0x3e285ca2	0.16441587
243	0x3e7d4a27	0.24735318
244	0x3d843e61	0.0645721
245	0xbd9592a7	-0.07303362
246	0x3db850a3	0.08999755
247	0xbbaf7abe	-0.005355208
248	0xbda2dc0c	-0.07952127
249	0xbe9e15a1	-0.30875877
250	0x3de13cfc	0.1099796
251	0x3f08d19f	0.53444856
252	0x3e1c3756	0.15255484
253	0x3d957e02	0.07299425
254	0x3dfde7c4	0.123977214
255	0x3e2b31c3	0.16718201

fc3.bias f4 [4]
0	0x3ebcde3f	0.3688831
1	0x3e6ad237	0.22931753
2	0x3e8204e0	0.25394344
3	0x3e6867e6	0.22695884
